backend: !!python/unicode 'theano'
class_name: mapModel
config:
- class_name: Conv2D
  config:
    activation: relu
    activity_regularizer: null
    batch_input_shape: !!python/tuple [null, 48, 48, 3]
    bias_constraint: null
    bias_initializer:
      class_name: Zeros
      config: {}
    bias_regularizer: null
    data_format: channels_last
    dilation_rate: !!python/tuple [1, 1]
    dtype: float32
    filters: 32
    kernel_constraint: null
    kernel_initializer:
      class_name: VarianceScaling
      config: {distribution: normal, mode: fan_in, scale: 2.0, seed: null}
    kernel_regularizer: null
    kernel_size: !!python/tuple [3, 3]
    name: block1_conv1
    padding: same
    strides: !!python/tuple [1, 1]
    trainable: true
    use_bias: true
- class_name: MaxPooling2D
  config:
    data_format: channels_last
    name: block1_pool
    padding: valid
    pool_size: !!python/tuple [2, 2]
    strides: !!python/tuple [2, 2]
    trainable: true
- class_name: Flatten
  config: {name: flatten, trainable: true}
- class_name: Dense
  config:
    activation: relu
    activity_regularizer: null
    bias_constraint: null
    bias_initializer:
      class_name: Zeros
      config: {}
    bias_regularizer: null
    kernel_constraint: null
    kernel_initializer:
      class_name: VarianceScaling
      config: {distribution: normal, mode: fan_in, scale: 2.0, seed: null}
    kernel_regularizer: null
    name: fc1
    trainable: true
    units: 1024
    use_bias: true
- class_name: Dense
  config:
    activation: softmax
    activity_regularizer: null
    bias_constraint: null
    bias_initializer:
      class_name: Zeros
      config: {}
    bias_regularizer: null
    kernel_constraint: null
    kernel_initializer:
      class_name: VarianceScaling
      config: {distribution: uniform, mode: fan_avg, scale: 1.0, seed: null}
    kernel_regularizer: null
    name: predictions
    trainable: true
    units: 2
    use_bias: true
keras_version: 2.1.5
